sample_data/models/velocity_dev-timing-articulation_log-notewise/best_model.pth (torch_old, 62302 bytes, 12 tensors)

hidden_layers.0.weight f4 [128, 35]
0	0xbc9cc581	-0.019137146
1	0x3de8681c	0.11347982
2	0xbcfe1d77	-0.03101991
3	0x3ddc4894	0.10756031
4	0x3de545d6	0.11194961
5	0x3e165134	0.14679414
6	0x3dda7568	0.10666925
7	0x3d247754	0.040152863
8	0xbe8e116c	-0.27747667
9	0xbe2ed2e9	-0.17072643
10	0xbe8c5b14	-0.27413237
11	0x3d1b430b	0.037905734
12	0xbd3c8e77	-0.046034303
13	0xbe9d0772	-0.30669743
14	0xbd915066	-0.07095413
15	0x3e166342	0.14686301
16	0xbde1211a	-0.10992642
17	0x3e9ca2f5	0.30593076
18	0xbe5a219f	-0.21301888
19	0x3debe224	0.11517742
20	0xbe1340e4	-0.14380223
21	0xbd9b2963	-0.07576253
22	0xbd7a5ebd	-0.061125506
23	0xbd2327f8	-0.03983304
24	0x3d173900	0.036919594
25	0xbda3985a	-0.07988043
26	0x3d572928	0.052529484
27	0x3e06bb36	0.13157353
28	0xbe95ff56	-0.29296368
29	0x3ea65520	0.3248682
30	0xbded5324	-0.115881234
31	0x3c413f7d	0.011794922
32	0x3cde50b1	0.027138086
33	0x3d7e1662	0.062033065
34	0xbdda4e96	-0.1065952
35	0x3e18daae	0.1492717
36	0x3e7ed355	0.24885304
37	0xbc3691d1	-0.011143164
38	0x3e28c118	0.1647991
39	0xbd342907	-0.04398444
40	0x3d874f39	0.066069074
41	0xbd53b78b	-0.051688712
42	0xbd93cd74	-0.072169214
43	0xbf1e8eb9	-0.6193653
44	0xbe4f864f	-0.20266078
45	0x3dc1b2a0	0.09457898
46	0x3de0282d	0.10945163
47	0x3e87a907	0.26496145
48	0xbc6c61e5	-0.014427637
49	0xbcfee6b0	-0.03111586
50	0x3d9d9fd2	0.07696499
51	0x3e2944d2	0.16530159
52	0x3d25b9ab	0.04046027
53	0xbdb21853	-0.08696046
54	0x3eb9ad24	0.36264908
55	0x3d89129a	0.06693001
56	0xbc43c845	-0.011949603
57	0x3d32c7f8	0.043647736
58	0xbeb9a75a	-0.36260492
59	0xbcdb6273	-0.026780343
60	0x3e60d983	0.21957974
61	0xbe1290fd	-0.14313121
62	0xbe53c370	-0.20680022
63	0xbda77ec6	-0.08178477
64	0x3eaeaa5a	0.34114343
65	0xbe70d182	-0.23517421
66	0xbf04dd04	-0.51899743
67	0xbd74f438	-0.059803218
68	0x3d2cf82a	0.042228855
69	0x3ca8db1e	0.020612296
70	0xbda168e2	-0.07881333
71	0xbbd403aa	-0.0064701634
72	0x3e2b6497	0.1673759
73	0xbe1a5942	-0.15073112
74	0xbd35db8a	-0.044398822
75	0xbb7997f0	-0.0038084947
76	0x3e31c595	0.17360528
77	0x3dee0ea7	0.116238885
78	0xbe23aa0c	-0.15982836
79	0xbab7d679	-0.001402571
80	0x3d0dd95e	0.034631126
81	0x3db126a9	0.08649952
82	0xbe8f983e	-0.2804584
83	0xbd6a52d7	-0.05720791
84	0xbd61142f	-0.05495089
85	0xbddb02be	-0.106938824
86	0xbded88fb	-0.115983926
87	0xbe0c490b	-0.13699739
88	0x3e449414	0.19197112
89	0x3e9d0b22	0.30672556
90	0x3e220a9e	0.15824363
91	0xbe0b337d	-0.1359386
92	0xbd97cb0c	-0.07411775
93	0xbd2d2207	-0.04226878
94	0x3e5ea57b	0.21742813
95	0xbe3080a0	-0.17236567
96	0x3dff3795	0.12461773
97	0xbd623faf	-0.055236515
98	0x3e10c1fb	0.14136498
99	0x3dd01889	0.1016093
100	0xbea40cbd	-0.3204097
101	0x3e689be2	0.22715715
102	0x3dd03c8b	0.10167798
103	0x3dd43b88	0.10362917
104	0xbdbd7486	-0.09250741
105	0xbdc7a261	-0.09747768
106	0x3c48c165	0.01225314
107	0xbd95f594	-0.07322231
108	0x3c4a8b9c	0.012362387
109	0x3d78fb92	0.06078679
110	0x3ec82096	0.3908736
111	0x3dcf3615	0.10117737
112	0xbb85d8bd	-0.004084675
113	0xbe46592c	-0.19369954
114	0xbe198d1c	-0.14995235
115	0xbe18c2d7	-0.14918076
116	0x3c9914f3	0.018686747
117	0xbe7589e1	-0.23978378
118	0xbda30285	-0.07959465
119	0x3c5450f6	0.012958756
120	0xbe528d5e	-0.2056174
121	0xbdfe15de	-0.124065146
122	0xbe045b6f	-0.12925504
123	0x3dc84959	0.09779615
124	0x3d9205c2	0.071300045
125	0x3b946fa0	0.0045299083
126	0x3cd0dd6f	0.025496213
127	0x3de5d809	0.11222846
128	0x3b934aee	0.0044950163
129	0xbde1af4e	-0.11019765
130	0xbd09fdf0	-0.03368944
131	0xbd4f5e6c	-0.050627157
132	0xbda817b3	-0.08207645
133	0x3cd1f622	0.02563006
134	0x3e6e6960	0.23282385
135	0x3db2b9de	0.087268576
136	0x3dc8b90b	0.09800919
137	0xbd12695c	-0.03574501
138	0x3e215642	0.15755561
139	0x3e0739e2	0.13205674
140	0x3ce9b5e1	0.02852911
141	0xbe392a8f	-0.18082641
142	0x3d0b3e56	0.033994995
143	0xbe296463	-0.165422
144	0x3d925600	0.071453094
145	0x3da77946	0.08177428
146	0xbdb68bff	-0.08913421
147	0xbe0e086a	-0.13870397
148	0xbeaf5dfa	-0.34251386
149	0x3e6bf1b9	0.23041429
150	0xbc91cb28	-0.017797068
151	0xbd5b010d	-0.0534678
152	0x3d8d40ba	0.06897111
153	0x3e48a70a	0.1959497
154	0xbe37544a	-0.17903247
155	0x3d2b9af3	0.041895818
156	0xbdbe80b5	-0.09301893
157	0xbdea9c1a	-0.11455555
158	0x3ee03091	0.43787053
159	0xbdf69341	-0.12039805
160	0xbddf6b6e	-0.109091625
161	0x3d2b1f96	0.04177817
162	0xbd595d5e	-0.053067558
163	0xbe56c793	-0.20974569
164	0xbd7b3e69	-0.061338816
165	0x3cd0c50c	0.025484584
166	0xbdf46459	-0.11933202
167	0xbd1621a7	-0.036653187
168	0x3ce7e77c	0.028308623
169	0xbe19a4ae	-0.15004227
170	0x3dc82ace	0.09773789
171	0x3bbd05a8	0.0057684965
172	0xbd2279e8	-0.03966704
173	0xbce89136	-0.028389554
174	0x3dce14c0	0.100625515
175	0x3e80b4d8	0.25137973
176	0x3d606d6d	0.054791857
177	0xbd27a5ac	-0.04092948
178	0x3df91a4b	0.12163218
179	0x3cab82fe	0.020936485
180	0xbcd5b500	-0.026087284
181	0x3dee6756	0.116408035
182	0x3d3fb0a5	0.04679932
183	0x3d45d0d6	0.048294865
184	0x3da8d6ea	0.082441166
185	0x3d1b062e	0.03784769
186	0x3d8cc485	0.068734206
187	0xbe164c44	-0.1467753
188	0x3dc17c4d	0.094475366
189	0xbb72a97f	-0.0037027297
190	0xbe078f0f	-0.13238166
191	0xbe6e6fc1	-0.23284818
192	0xbdef89f3	-0.116962336
193	0x3d42f69c	0.047598466
194	0xba9a9bdf	-0.0011795721
195	0xbdde5566	-0.10856132
196	0xbcb98cde	-0.022650179
197	0x3d5c63fe	0.053806297
198	0x3d847445	0.06467489
199	0xbd35c150	-0.04437381
200	0x3e3d3c24	0.18479973
201	0x3de5fec7	0.112302355
202	0x3d662d8c	0.05619578
203	0x3d40fcae	0.047115974
204	0x3e330806	0.1748353
205	0x3e397b7e	0.18113515
206	0x3da2506c	0.079254955
207	0xbe8a706b	-0.27038893
208	0x3cb65a61	0.022259893
209	0x3df35505	0.118814506
210	0x3e37aa4c	0.17936057
211	0x3e5638e3	0.20920138
212	0x3e6b052d	0.22951193
213	0xbd65ac07	-0.05607226
214	0x3bec864e	0.007218159
215	0xbeb07864	-0.3446685
216	0xbb0762d5	-0.0020658274
217	0xbda3c772	-0.079970255
218	0xbdc04bae	-0.09389435
219	0xbd8eb352	-0.069677964
220	0xbe2b8bf2	-0.16752604
221	0x3e04464d	0.12917443
222	0xbe32a7c5	-0.17446811
223	0xbd96cac5	-0.07362894
224	0x3c6572ce	0.014004422
225	0x3de53a7a	0.11192794
226	0xba804078	-0.0009784838
227	0xbea128c8	-0.31476426
228	0xbe111359	-0.14167537
229	0x3d7d00c2	0.0617683
230	0xbe093f3a	-0.13403025
231	0x3df3cb91	0.119040616
232	0x3e4878ec	0.19577378
233	0x3dd23736	0.10264437
234	0xbe2ba6ed	-0.16762896
235	0xbe2f858e	-0.17140791
236	0x3e00855e	0.12550876
237	0x3e0704c1	0.13185407
238	0x3e4f4476	0.2024096
239	0xbe872800	-0.26397705
240	0xbeaaa34d	-0.33327714
241	0x3e11b55f	0.14229344
242	0xbd1c0289	-0.038088355
243	0xbd75c0ea	-0.05999843
244	0xbe5dbbfe	-0.21653745
245	0x3d6c6538	0.057713717
246	0x3dc82e35	0.09774438
247	0x3e82d8c4	0.25556004
248	0xbd8f2e9c	-0.06991312
249	0xbe228875	-0.15872367
250	0x3ecca992	0.39973122
251	0xbdde5d41	-0.108576305
252	0x3e41f2fd	0.18940349
253	0xbe58a7d9	-0.21157779
254	0xbe00904d	-0.12555046
255	0xbdfe5378	-0.12418264

hidden_layers.0.bias f4 [128]
0	0xbda2c5de	-0.079478964
1	0xbe4d78cb	-0.2006561
2	0xbda3f2d6	-0.08005302
3	0x3d83e79c	0.0644066
4	0xbdc863a4	-0.0978463
5	0xb9cf635d	-0.00039556148
6	0x3e0d85d1	0.13820578
7	0xbdd2eae3	-0.10298707
8	0xbd2ddd5e	-0.04244744
9	0xbd709458	-0.05873522
10	0x3e2d4d28	0.16923964
11	0x3cead2e7	0.02866502
12	0x3d53bdfb	0.05169485
13	0x3d8a5111	0.067537434
14	0x3d24a368	0.0401949
15	0x3e0910a4	0.13385254
16	0x3e11e3ad	0.14247008
17	0xbce3e41c	-0.027818732
18	0x3e70ba5f	0.23508595
19	0xbe020270	-0.12696242
20	0x3d8c5d61	0.06853748
21	0xbe0bdd1f	-0.1365857
22	0xbce6c1fe	-0.028168675
23	0x3decc7cf	0.11561548
24	0xbd5fb06d	-0.054611612
25	0xbd4a8483	-0.04944278
26	0xbd52c911	-0.051461283
27	0x3c9c07bb	0.019046655
28	0x3d95e078	0.07318205
29	0xbd6d1c02	-0.05788804
30	0x3e39c5ff	0.18141936
31	0x3ddaf529	0.10691292
32	0x3e2c6c80	0.16838264
33	0xbc5daccc	-0.0135299675
34	0xbdcf4b46	-0.10121779
35	0x3db95986	0.09050278
36	0xbe55452c	-0.20827168
37	0x3e30c344	0.17261988
38	0x3e009a35	0.12558825
39	0x3e1c7b07	0.15281306
40	0x3df270f5	0.11837951
41	0x3bf267b7	0.0073976177
42	0x3da5f65d	0.08103631
43	0xbd8f2f8b	-0.0699149
44	0x3db479fe	0.08812331
45	0x3d8d9dc8	0.0691486
46	0x3e1d9e72	0.15392473
47	0xbd0118b1	-0.03151769
48	0xbcbbc2d2	-0.022920046
49	0xbd0797b2	-0.033103652
50	0x3daf41e5	0.0855749
51	0xbdb3e76d	-0.08784375
52	0xbc89cdc4	-0.01682175
53	0x3def11f5	0.11673347
54	0xbde68e0d	-0.11257563
55	0xbda62450	-0.08112395
56	0x3dd57d1e	0.10424255
57	0xbce09929	-0.027416782
58	0x3cbdd8c9	0.02317466
59	0xbcfba4ec	-0.03071829
60	0x3dfcc3d9	0.123420425
61	0xbcc323c8	-0.023820773
62	0x3df6a2e5	0.120427884
63	0x3dfa34d3	0.12217107
64	0x3e615ea7	0.22008763
65	0xbca8b75f	-0.02059525
66	0x3e423382	0.18964961
67	0xbd9b715c	-0.07589981
68	0xbda7d7db	-0.08195468
69	0xbdd20b4d	-0.10256062
70	0x3ccd10f8	0.025032505
71	0x3d379ee3	0.04482926
72	0xbdcf515f	-0.10122942
73	0x3dea0cf3	0.11428251
74	0xbbd84398	-0.0065998547
75	0x3e11d119	0.1423992
76	0x3e021c87	0.12706195
77	0x3cf84cd1	0.030310066
78	0x3db3af04	0.08773616
79	0xbd95b6fb	-0.073102914
80	0xbd8db178	-0.06918615
81	0x3d9062b3	0.070500754
82	0xbd1d8ca0	-0.03846419
83	0x3e35b8f3	0.17746334
84	0x3c63d76e	0.013906343
85	0xbd3d0eb1	-0.04615659
86	0x3d76a54e	0.06021624
87	0xbdcff938	-0.101549566
88	0xbb83cc39	-0.004022148
89	0xbd52373f	-0.051322218
90	0x3dfb4382	0.122687355
91	0x3e4483fb	0.19190972
92	0x3e3fca9f	0.18729638
93	0xbd172c6a	-0.03690759
94	0xbb28f404	-0.002578021
95	0xbc84e9de	-0.016224798
96	0x3df1db06	0.118093535
97	0x3e4036fc	0.18770975
98	0xbd93cccd	-0.07216797
99	0xbde824e7	-0.113351636
100	0x3e14bfcd	0.14526291
101	0xbdde17d9	-0.10844392
102	0x3d34e29e	0.04416143
103	0x3e42031b	0.18946497
104	0xbd9f79c0	-0.07786894
105	0xbd57c07f	-0.052673813
106	0xbe1fba5c	-0.15598434
107	0x3dd9e5f9	0.10639567
108	0xbe085cae	-0.13316604
109	0xbd3a8de3	-0.04554547
110	0xbccba33e	-0.024858113
111	0x3e057625	0.1303335
112	0x3db2210c	0.086977094
113	0x3d5d95f4	0.054098085
114	0x3ded00ec	0.115724415
115	0xbe23c2a0	-0.15992212
116	0xbd52bca6	-0.05144944
117	0xbdabf290	-0.083958745
118	0x3cc8335f	0.024438558
119	0xbd31ccf5	-0.043408353
120	0xbb2b7949	-0.002616482
121	0x3e39d488	0.1814748
122	0x3e0c9e53	0.13732271
123	0x3d543183	0.05180503
124	0xbc92e832	-0.017932985
125	0x3e608e11	0.21929194
126	0x3e6c567d	0.23079868
127	0x3dd5e1bb	0.10443445

output.weight f4 [3, 128]
0	0x3cde4792	0.027133737
1	0xbd55f029	-0.052230988
2	0x3c392a84	0.01130164
3	0x3e334c3b	0.17509548
4	0x3d683e9b	0.05670033
5	0x3e3f0e62	0.1865783
6	0xbcc62d55	-0.024191538
7	0xbd3d349c	-0.04619275
8	0xbd5cf4eb	-0.05394451
9	0xbd0a8d65	-0.03382625
10	0xbd299b99	-0.041408155
11	0x3cc52967	0.024067594
12	0xbd5724c2	-0.05252529
13	0x3d784a1b	0.060617547
14	0x3b0083df	0.0019609851
15	0xbcbab584	-0.022791632
16	0x3c2e0bad	0.010622901
17	0xbe49f884	-0.19723707
18	0x3d9fac77	0.07796567
19	0x3dbcb4f8	0.092142045
20	0xbe32b3fd	-0.17451473
21	0xbb041a18	-0.0020157155
22	0xbd3dd17f	-0.04634237
23	0xbd8b7aed	-0.068105556
24	0x3d5f7881	0.05455828
25	0xbe07f69f	-0.13277672
26	0xbddc52f8	-0.107580125
27	0xbc8b3dc2	-0.016997222
28	0x3dda9eb1	0.10674799
29	0xbc8a1519	-0.016855763
30	0x3d12c7bd	0.035835017
31	0x3da7de71	0.08196724
32	0x3d1937e4	0.037406817
33	0xbcf39d7c	-0.02973818
34	0xbd9a3614	-0.07529846
35	0x3e37502a	0.17901674
36	0xbd96d358	-0.07364529
37	0x3db747ba	0.08949228
38	0x3ddeb398	0.108740985
39	0x3d18c22d	0.037294555
40	0x3de30ec3	0.110868
41	0xbc941009	-0.018074052
42	0xbd3d1330	-0.046160877
43	0x3d327150	0.043565094
44	0x3d37d6e9	0.04488269
45	0xbc2d6955	-0.010584195
46	0x3d5b0bcf	0.05347806
47	0xbba4d250	-0.005029954
48	0xbe147399	-0.14497222
49	0xbdc4adb9	-0.096034475
50	0x3dea7680	0.11448383
51	0xbdbed47f	-0.09317874
52	0x3d7887c4	0.06067635
53	0xbb9e158d	-0.0048243464
54	0x3d1a3af5	0.037653882
55	0x3dfc9fd2	0.12335171
56	0x3cfda5ca	0.030962843
57	0x3bf8ce8e	0.0075929826
58	0xbd8e3d7a	-0.069453195
59	0x3d456bb7	0.048198428
60	0xbd1447d6	-0.03620132
61	0x3dda99d0	0.10673869
62	0x3dbc9404	0.09207919
63	0x3d657599	0.056020353
64	0x3d67ba5c	0.05657421
65	0x3d632ae3	0.05546082
66	0x3d7520df	0.0598458
67	0x3e1350c0	0.14386272
68	0xbce09e84	-0.027419336
69	0xbded7098	-0.11593741
70	0xbcc2c6ad	-0.023776377
71	0x3dceeb61	0.10103489
72	0x3d391446	0.04518535
73	0x3ca367b7	0.019946916
74	0x3d9c88fe	0.07643317
75	0x3d21efac	0.03953521
76	0xbd1feba9	-0.039043102
77	0x3d6e958d	0.05824809
78	0xbc8638ce	-0.016384508
79	0x3ce31574	0.02772019
80	0xbcb375e3	-0.021906799
81	0xbe04fdaf	-0.12987398
82	0xbd776688	-0.060400516
83	0xb8ea80f3	-0.00011182008
84	0xbccc2802	-0.024921421
85	0xbd0c4b9c	-0.034251794
86	0xbd278368	-0.040896803
87	0xbd8d9cf2	-0.069147006
88	0xbe4c3995	-0.19943841
89	0xbd791ffe	-0.060821526
90	0x3e4b7681	0.19869424
91	0xbdae4d74	-0.08510867
92	0x3bf4aa34	0.007466579
93	0xbada0a3b	-0.0016635129
94	0xbd00a7f2	-0.031410165
95	0x3d6e2b22	0.058146603
96	0xbd0d847e	-0.034550183
97	0xbd2adb1f	-0.041712876
98	0xbd208d4d	-0.039197255
99	0x3bb700b8	0.0055848025
100	0xbe1d0a8f	-0.15336059
101	0xbe14fcf2	-0.14549616
102	0xbcfddcad	-0.030989015
103	0x3e170bab	0.14750545
104	0x3e0f59df	0.13999127
105	0xbd93ec83	-0.072228454
106	0xbd151cc3	-0.036404382
107	0xbca6ab6d	-0.020345414
108	0xbcfac2c6	-0.030610453
109	0xbca034f6	-0.019556504
110	0xbd666af9	-0.05625436
111	0xbd8296b5	-0.06376401
112	0xbda1b447	-0.07895713
113	0x3e0f3a9a	0.13987198
114	0xbc3b40fa	-0.011429066
115	0x3d50130e	0.050799422
116	0xbab625cc	-0.0013896762
117	0xbd8694ef	-0.065713756
118	0x3d807948	0.062731326
119	0xbce6f89c	-0.028194718
120	0x3d337c19	0.04381952
121	0xbdca673a	-0.0988297
122	0xbd1ed336	-0.038775645
123	0x3d8f0640	0.06983614
124	0xbd36f9a9	-0.04467169
125	0xbd3969eb	-0.045267027
126	0xbcd8b2ed	-0.026452506
127	0xbe05f9b8	-0.13083541
128	0xbd96cf55	-0.07363764
129	0xbd2b3cf9	-0.041806195
130	0x3d62c190	0.055360377
131	0x3e843a58	0.25825763
132	0xbe0bb9f8	-0.1364516
133	0xbe592739	-0.21206369
134	0x3db8baee	0.09020029
135	0xba2c80cb	-0.0006580471
136	0xbdd9feb2	-0.106442824
137	0xbd5ab735	-0.053397376
138	0x3c7c23cc	0.015389394
139	0xbbbe5f55	-0.0058097043
140	0xbc4f8f0e	-0.012668384
141	0xbd700a72	-0.05860371
142	0x3cebeb2b	0.02879866
143	0x3c8bb53f	0.017054198
144	0x3d920dd5	0.071315445
145	0xbdb48a91	-0.08815492
146	0xbe42e74d	-0.19033547
147	0xbe000c98	-0.12504804
148	0xbd6d6d39	-0.05796549
149	0xbdf0661b	-0.11738225
150	0x3dd3baf8	0.10338396
151	0x3e040ece	0.12896273
152	0x3dd9172b	0.10600122
153	0xbe0c3b13	-0.1369441
154	0x3de7c090	0.11316025
155	0x3e392dfa	0.18083945
156	0xbd75cef9	-0.060011838
157	0x3db18236	0.08667414
158	0xbe102a68	-0.14078677
159	0xbd36fce5	-0.044674773
160	0x3db3dadf	0.08781981
161	0xbdc17722	-0.09446551
162	0xbd2fb524	-0.04289736
163	0xbce0e565	-0.027453134
164	0x3a9cbe61	0.0011958593
165	0x3c80e889	0.015735881
166	0xbdcef907	-0.10106092
167	0xbce0b46f	-0.027429787
168	0x3deb820c	0.11499414
169	0x3e48e78e	0.19619581
170	0x3bbda88b	0.005787914
171	0xbd4d7eab	-0.050169628
172	0xbcd6ce4f	-0.026221422
173	0x3d6417fe	0.055686943
174	0xbe148b93	-0.14506368
175	0x3d9b4f2b	0.075834595
176	0xbe2138d4	-0.15744334
177	0x3ac74b33	0.0015204906
178	0x3d852799	0.06501693
179	0x3d5e8fde	0.05433642
180	0xbd493b18	-0.04912862
181	0xbd43be41	-0.047788862
182	0xbc1e70bd	-0.009670434
183	0xbd5ebe03	-0.054380428
184	0xbe92079e	-0.28521436
185	0x3d596032	0.053070255
186	0x3d2a0779	0.041511033
187	0xbd854606	-0.065074965
188	0x3cbb75bf	0.022883294
189	0x3cf6756b	0.030085286
190	0x3d2383b5	0.039920527
191	0x3c9d7c20	0.019224226
192	0xbc0df3d3	-0.008664089
193	0x3dd5aaf0	0.10432994
194	0xbcd2be4e	-0.02572551
195	0x3d01a125	0.03164782
196	0x3de5b7c7	0.11216693
197	0x3d2dbee6	0.042418383
198	0x3de059a0	0.109545946
199	0x3d1aabfe	0.03776168
200	0x3c949498	0.018137261
201	0xbe3087cd	-0.17239304
202	0x3e187598	0.14888608
203	0x3bafb947	0.005362663
204	0xbd89e6d0	-0.06733477
205	0xbd21253b	-0.039342146
206	0xbd33367b	-0.04375313
207	0xbe0b2032	-0.135865
208	0xbe6040c0	-0.218997
209	0x3b644c23	0.003483542
210	0xbdf422f8	-0.11920732
211	0x3b9a0ca2	0.004701213
212	0xbe419226	-0.18903407
213	0x3b837d71	0.0040127565
214	0x3d881e34	0.06646386
215	0x3e05200e	0.13000509
216	0x3b1e7495	0.0024178375
217	0x3c2f3c7f	0.010695576
218	0x3d525b63	0.051356684
219	0x3d51d452	0.051227875
220	0x3e0b2a06	0.1359025
221	0x3dbffdc6	0.09374575
222	0x3d40ca0c	0.047067687
223	0x3c8fbd93	0.01754645
224	0xbe1e3791	-0.15450884
225	0x3bceed22	0.0063148895
226	0xbe3628fa	-0.17789069
227	0x3cdb0eb5	0.026740411
228	0xbd17230d	-0.03689866
229	0x3e1d4705	0.15359123
230	0x3d127bf1	0.03576273
231	0xbde9b255	-0.11410967
232	0xbe155e5c	-0.14586776
233	0x3dbc54b4	0.09195843
234	0xbd6b334c	-0.057421967
235	0xbdcd4db6	-0.10024588
236	0xbd3f4864	-0.046699896
237	0x3d82cc6d	0.063866474
238	0x3cd23eb8	0.025664672
239	0x3c1397d1	0.009008364
240	0xbc78b797	-0.01518049
241	0x3db768f4	0.08955565
242	0xbd8327f5	-0.064041056
243	0xbd6d4b36	-0.057933055
244	0xbe188fd6	-0.14898619
245	0x3ee5eb84	0.44906247
246	0x3e286d8d	0.1644804
247	0xbd80c7b4	-0.0628809
248	0xbe0acd9e	-0.13554999
249	0xbba09d2f	-0.0049015502
250	0x3dad811e	0.08471893
251	0xbdcb6f76	-0.09933369
252	0x3db2210f	0.08697712
253	0x3dde0dbb	0.10842463
254	0x3e088eb6	0.1333569
255	0x3c0c5608	0.008565433

output.bias f4 [3]
0	0x3d118c81	0.035534386
1	0x3dbd8d40	0.09255457
2	0x3daf3c59	0.08556432

exp_avg f4 [128, 35]
0	0x3a3f06a0	0.0007287059
1	0x3a2d8d98	0.00066205254
2	0x3a1b04ac	0.0005913477
3	0xb9dbe8ed	-0.00041944478
4	0x3a0fb5bd	0.0005482098
5	0x39c37fa6	0.00037288404
6	0x3a4f176a	0.00078999123
7	0x37032587	7.816946e-06
8	0x394a7fc0	0.00019311812
9	0x391e61ba	0.0001510446
10	0x38e6be0c	0.000110026536
11	0xba0df210	-0.0005414793
12	0x3821cf55	3.8578484e-05
13	0x39f6f9c1	0.00047106858
14	0x39b6ee26	0.0003489118
15	0xb9b97d72	-0.00035379414
16	0xb706947a	-8.021592e-06
17	0x3a8bca99	0.0010665237
18	0x3acc239d	0.0015574578
19	0x3a768949	0.00094046124
20	0x00000000	0.0
21	0xb8496f5f	-4.8025857e-05
22	0xba3b44be	-0.0007143727
23	0x3967a689	0.00022091916
24	0x390b050c	0.00013257953
25	0xb7861f6b	-1.5988675e-05
26	0xb96badbf	-0.00022476072
27	0x3a861f03	0.0010232631
28	0xb9544a5c	-0.00020245597
29	0xb8c16ffe	-9.223817e-05
30	0xb9a4a6c0	-0.00031404756
31	0x3a2823ab	0.00064140063
32	0x39d11d50	0.00039885426
33	0x39929109	0.0002795535
34	0x38e468b0	0.00010891387
35	0x39348717	0.00017216463
36	0x391556cd	0.00014242083
37	0x38d98d99	0.00010373741
38	0xba783d1f	-0.0009469557
39	0x39a25907	0.00030965378
40	0x3a0ebe0a	0.0005445188
41	0x39cfbba3	0.00039621917
42	0xb674ca7f	-3.6476702e-06
43	0x329d52d0	1.8314864e-08
44	0xb52b839a	-6.389397e-07
45	0x39159c87	0.00014268058
46	0xba45512e	-0.00075270503
47	0x38392264	4.4139466e-05
48	0x3a76ad6d	0.0009409998
49	0x37e42736	2.7197977e-05
50	0xb9cf00b9	-0.00039482655
51	0xb7000f60	-7.632974e-06
52	0x3a3181c3	0.000677135
53	0x3aa44d15	0.0012535179
54	0x3a64cb5a	0.00087278115
55	0x00000000	0.0
56	0xb8f386c0	-0.00011612242
57	0xba48ecc6	-0.00076646765
58	0x390831c7	0.00012988514
59	0x39be0902	0.00036246335
60	0xb9389ddc	-0.00017606415
61	0xb9b389a7	-0.000342441
62	0x39ab318e	0.00032652583
63	0xb9d015f4	-0.00039689208
64	0xb8d79a82	-0.00010280778
65	0x389ab423	7.376845e-05
66	0x38f3edbf	0.000116314266
67	0x3a3990fe	0.00070787955
68	0x39ea2cbf	0.00044665296
69	0x3901455e	0.0001232824
70	0xba703eaa	-0.0009164611
71	0xba519703	-0.000799522
72	0xba340fd9	-0.00068688166
73	0xb8ed08cf	-0.000113026814
74	0xba3ab82a	-0.00071227795
75	0xba37a8e6	-0.0007006064
76	0xba1e5bb1	-0.0006040885
77	0x37560eee	1.275887e-05
78	0xb9bbbef6	-0.00035809696
79	0x392bb0ac	0.00016373646
80	0xb721632d	-9.619439e-06
81	0xb9d54cb5	-0.00040683677
82	0x00000004	6e-45
83	0xba4715f6	-0.000759452
84	0x39428c8a	0.00018553637
85	0x3631f0f6	2.6515313e-06
86	0x00000004	6e-45
87	0xba9d0c3a	-0.0011981793
88	0xbab3f53e	-0.0013729704
89	0xbab3910f	-0.0013699847
90	0x00000000	0.0
91	0xb900b4a3	-0.00012274324
92	0xb8e4f40b	-0.00010917344
93	0xb9376ac7	-0.00017492018
94	0xb98d7bf5	-0.0002698597
95	0x387dfe9b	6.055702e-05
96	0x38d5236a	0.00010163228
97	0xb9df7e9a	-0.000426282
98	0x39cd3205	0.00039137914
99	0x3893d541	7.049228e-05
100	0x34239159	1.5233435e-07
101	0xb8fcf46b	-0.00012061823
102	0xba234a19	-0.0006228998
103	0xb9995028	-0.00029242155
104	0x00000004	6e-45
105	0xb9722d4d	-0.00023095794
106	0xb95c5162	-0.00021011152
107	0xb93f567d	-0.00018247399
108	0x39b1c428	0.0003390622
109	0xb996e988	-0.00028784224
110	0xba3abf98	-0.00071238866
111	0xb96669df	-0.0002197395
112	0x3779d905	1.4892085e-05
113	0xb9a553e5	-0.0003153376
114	0x00000000	0.0
115	0x00000004	6e-45
116	0x39791b1a	0.00023756587
117	0x370cf9c6	8.402805e-06
118	0xba02e1bf	-0.0004992745
119	0x38988b08	7.2738214e-05
120	0x38fc5a95	0.000120331686
121	0x00000000	0.0
122	0xba0343fd	-0.00050073845
123	0xba5a2c32	-0.00083226257
124	0xb9cf6979	-0.000395607
125	0x00000000	0.0
126	0x37f63eb8	2.9354691e-05
127	0x39ccef3f	0.00039088164
128	0xb93f8b41	-0.00018267056
129	0xb927186d	-0.0001593546
130	0x38139592	3.518683e-05
131	0x3806983a	3.208986e-05
132	0xb8b02f40	-8.401135e-05
133	0x38ba31fc	8.8784815e-05
134	0x3848591d	4.776671e-05
135	0xb8c5b368	-9.427109e-05
136	0x37e38249	2.7121177e-05
137	0xb95ace36	-0.0002086692
138	0xb9689e86	-0.00022184299
139	0xb889351f	-6.542564e-05
140	0x3ad5718c	0.001628445
141	0x3ac2d880	0.0014865547
142	0x3ab00a97	0.001343089
143	0x377e500f	1.515822e-05
144	0x3a0a8291	0.0005283738
145	0x3a2870de	0.000642551
146	0x3a034aaa	0.0005008379
147	0x00000000	0.0
148	0x39a8310b	0.00032079997
149	0x38c425df	9.353062e-05
150	0x00000000	0.0
151	0x377e500f	1.515822e-05
152	0x00000000	0.0
153	0x3a9e17c1	0.0012061523
154	0x00000004	6e-45
155	0xb957af07	-0.000205692
156	0x00000000	0.0
157	0x3aedf7b3	0.0018155485
158	0x3ae75a84	0.0017650877
159	0x3ae4da6c	0.0017460114
160	0x00000000	0.0
161	0x390ed116	0.00013620066
162	0xb8eb74a4	-0.00011227399
163	0xb7131c75	-8.768508e-06
164	0x3a0dd715	0.0005410773
165	0xb98bfe8e	-0.00026701804
166	0x00000000	0.0
167	0x39a7ef30	0.0003203093
168	0xb9fed7f5	-0.00048607556
169	0x00000004	6e-45
170	0x3a3ca80c	0.0007196672
171	0x3a064d6a	0.000512323
172	0x39b0a08e	0.00033688959
173	0x39015713	0.00012334836
174	0x00000000	0.0
175	0xb9fb5b42	-0.00047942443
176	0xb9dc0802	-0.00041967636
177	0xb9bdc6e8	-0.00036197086
178	0x392143c4	0.00015379401
179	0xb9a18daf	-0.00030813875
180	0xb93ad133	-0.00017816275
181	0xb98fca54	-0.00027425832
182	0x3687a4c4	4.0424948e-06
183	0xb8fbb498	-0.00012002251
184	0x3839a72a	4.426312e-05
185	0x3723bb43	9.759157e-06
186	0x38fae41b	0.00011963417
187	0xb783fe30	-1.5734782e-05
188	0xb9b006de	-0.00033574452
189	0xb84d9d65	-4.9022394e-05
190	0x38e54156	0.00010931741
191	0x36dedc84	6.641787e-06
192	0xba1c7439	-0.0005968246
193	0xba1827fb	-0.00058042974
194	0xba110f79	-0.00055336166
195	0x00000000	0.0
196	0x36bb76d3	5.5868672e-06
197	0x394be599	0.0001944512
198	0xb8a89e81	-8.040388e-05
199	0x374d533d	1.2238333e-05
200	0x388a08e3	6.582008e-05
201	0x38566ca5	5.112276e-05
202	0xb9acdfd0	-0.0003297315
203	0x399bedc2	0.00029741047
204	0x37d4598f	2.5314073e-05
205	0xb9926b8d	-0.00027927422
206	0xb934053a	-0.00017168085
207	0xb895e1a2	-7.146901e-05
208	0xb919b28e	-0.00014657734
209	0xb8217066	-3.849007e-05
210	0xba3522b4	-0.0006909773
211	0xba22fdae	-0.0006217611
212	0xba0e3fa2	-0.0005426352
213	0x3a87d8e5	0.0010364322
214	0xba25a34b	-0.0006318583
215	0xb955d239	-0.00020391577
216	0xba5c0759	-0.0008393429
217	0xb7046af0	-7.892711e-06
218	0xb923777c	-0.00015589403
219	0xb925084c	-0.00015738717
220	0xb777c153	-1.4767359e-05
221	0x3a25abd4	0.0006319855
222	0xb8210530	-3.8390222e-05
223	0xba22367b	-0.0006187928
224	0x39253b02	0.00015757608
225	0x397d5039	0.00024157845
226	0x37945341	1.7681743e-05
227	0xba8aca88	-0.0010588923
228	0xba741672	-0.0009311206
229	0xba14ff82	-0.00056838256
230	0x00000000	0.0
231	0x38b26fab	8.508501e-05
232	0x3a35006d	0.00069046655
233	0xb9168a30	-0.00014356594
234	0xb901b5fc	-0.00012370193
235	0x38565fdf	5.1110863e-05
236	0x39339928	0.00017127825
237	0xba8946b5	-0.0010473343
238	0x39b73772	0.0003494579
239	0x3513c7ad	5.5052334e-07
240	0x00000004	6e-45
241	0xb96b2cda	-0.00022428055
242	0xb9e18faf	-0.00043022397
243	0xb9245566	-0.00015672072
244	0x2c2e4f51	2.4770917e-12
245	0xba9c7575	-0.001193686
246	0xba88c421	-0.0010434428
247	0xba69f023	-0.0008924028
248	0x392ccefa	0.00016480303
249	0xb9ad426c	-0.0003304662
250	0xba5fb614	-0.00085339067
251	0xb9895c02	-0.00026199227
252	0x389579c5	7.127555e-05
253	0xba1acc9e	-0.0005905124
254	0xb90f6f2a	-0.00013678955
255	0x386bf02b	5.625204e-05

exp_avg_sq f4 [128, 35]
0	0x37afee11	2.0972484e-05
1	0x378c37ea	1.6715338e-05
2	0x375d216e	1.318041e-05
3	0x3815bd16	3.570047e-05
4	0x37a16a44	1.924218e-05
5	0x37610bbe	1.3413779e-05
6	0x372934a3	1.008544e-05
7	0x34e7cd02	4.3176266e-07
8	0x35106a22	5.3798624e-07
9	0x3628ef0e	2.51731e-06
10	0x35091010	5.105985e-07
11	0x3794b813	1.7728691e-05
12	0x33c71f50	9.272355e-08
13	0x363ed86a	2.8438176e-06
14	0x373c040b	1.12066145e-05
15	0x35551809	7.938366e-07
16	0x344a180f	1.8821468e-07
17	0x381a1352	3.6734455e-05
18	0x379877f7	1.8175675e-05
19	0x37881537	1.6222342e-05
20	0x00000000	0.0
21	0x35b7ce05	1.3694522e-06
22	0x377cd991	1.5071027e-05
23	0x35b75fc8	1.3662439e-06
24	0x36506c30	3.1057389e-06
25	0x3699f8aa	4.5887036e-06
26	0x35db7093	1.6349535e-06
27	0x3703601e	7.8305875e-06
28	0x35ab2012	1.2749827e-06
29	0x35016d08	4.8214906e-07
30	0x360b586c	2.0764082e-06
31	0x368853e1	4.0628806e-06
32	0x36819f29	3.8630283e-06
33	0x35c061cb	1.4333576e-06
34	0x34b0e051	3.2945766e-07
35	0x37db5221	2.6145079e-05
36	0x37aff52e	2.0975796e-05
37	0x378bd15f	1.6667587e-05
38	0x381b3fba	3.701423e-05
39	0x379993c5	1.8307832e-05
40	0x37622d91	1.3481259e-05
41	0x36fc5dd5	7.5211087e-06
42	0x350ba882	5.2026746e-07
43	0x31909921	4.2083603e-09
44	0x3506e8fc	5.0257927e-07
45	0x3587ca03	1.0117077e-06
46	0x37b39245	2.1406575e-05
47	0x33fe85f1	1.18521605e-07
48	0x3750cb06	1.2445036e-05
49	0x372ce7dc	1.0305983e-05
50	0x35886619	1.0162504e-06
51	0x34818ffa	2.413288e-07
52	0x383ed3c2	4.5496745e-05
53	0x37a70e62	1.9914649e-05
54	0x380350b1	3.1307984e-05
55	0x00000000	0.0
56	0x35e3ea8e	1.6981082e-06
57	0x379f8a3f	1.9018653e-05
58	0x34ed6608	4.4218928e-07
59	0x364cae64	3.0499878e-06
60	0x36ce4cb2	6.148207e-06
61	0x35c15a6f	1.440594e-06
62	0x35a2fe09	1.2143875e-06
63	0x36c71573	5.933159e-06
64	0x3525f147	6.1818395e-07
65	0x368ef85b	4.260842e-06
66	0x354c0e03	7.601631e-07
67	0x370ab042	8.266479e-06
68	0x36134e6c	2.1950354e-06
69	0x34e3876c	4.2380577e-07
70	0x37429a39	1.1599209e-05
71	0x371afa11	9.237338e-06
72	0x36f4674f	7.2837934e-06
73	0x36a7cd81	5.0009116e-06
74	0x370437a3	7.880767e-06
75	0x36f42e05	7.277124e-06
76	0x36c685fe	5.9164586e-06
77	0x347614e8	2.2918141e-07
78	0x36de0116	6.616242e-06
79	0x34f760c2	4.6077736e-07
80	0x3418dd25	1.4236555e-07
81	0x362d1ffb	2.5797624e-06
82	0x1d267586	2.2030675e-21
83	0x3755f61a	1.2753089e-05
84	0x3643b1d4	2.9160774e-06
85	0x331d4613	3.6618143e-08
86	0x1cc13dce	1.2787645e-21
87	0x37ccdcca	2.4421508e-05
88	0x379822f7	1.8136094e-05
89	0x37a6e52c	1.9895459e-05
90	0x00000000	0.0
91	0x34526df7	1.9597779e-07
92	0x36100da2	2.1465607e-06
93	0x349e0b0d	2.9437834e-07
94	0x35e504c0	1.7063212e-06
95	0x35b7c9af	1.369326e-06
96	0x35282127	6.263312e-07
97	0x362c86f9	2.5708562e-06
98	0x368d3463	4.208226e-06
99	0x349b3c96	2.8915082e-07
100	0x32c8de0c	2.338404e-08
101	0x36aaaebe	5.0867375e-06
102	0x36901a86	4.294622e-06
103	0x35caaf6e	1.510123e-06
104	0x1b50557f	1.7232982e-22
105	0x36bafd76	5.5727387e-06
106	0x36918a83	4.3374616e-06
107	0x365fed3b	3.3367676e-06
108	0x36e0b074	6.696262e-06
109	0x36e71549	6.8868144e-06
110	0x36d6700b	6.3907405e-06
111	0x36543804	3.1623067e-06
112	0x3408d389	1.2742943e-07
113	0x35f433c9	1.8194488e-06
114	0x00000000	0.0
115	0x1ca77aea	1.1082906e-21
116	0x36c0db5d	5.747583e-06
117	0x320220fb	7.574495e-09
118	0x3682ed3d	3.90192e-06
119	0x35e896a2	1.7329187e-06
120	0x34148633	1.3832395e-07
121	0x00000000	0.0
122	0x37187834	9.087893e-06
123	0x37045252	7.88698e-06
124	0x36d18673	6.2443373e-06
125	0x00000000	0.0
126	0x34a612c9	3.0933577e-07
127	0x36abf72f	5.124973e-06
128	0x348d5f34	2.6332566e-07
129	0x34cd38d4	3.8225573e-07
130	0x355857a9	8.059383e-07
131	0x340096b3	1.1975753e-07
132	0x35910dd1	1.0807363e-06
133	0x358d7973	1.0540665e-06
134	0x348361ea	2.4471893e-07
135	0x352b6090	6.384298e-07
136	0x36098089	2.0489408e-06
137	0x34e2199c	4.2114414e-07
138	0x355ee0e2	8.302869e-07
139	0x340052f1	1.1951103e-07
140	0x3803996d	3.1375723e-05
141	0x37cc0e26	2.4325283e-05
142	0x379c9907	1.8667908e-05
143	0x36bbee34	5.600765e-06
144	0x37df95af	2.6653373e-05
145	0x38048d45	3.160282e-05
146	0x371dbe21	9.402197e-06
147	0x00000000	0.0
148	0x37999050	1.8306222e-05
149	0x3696f4e1	4.498856e-06
150	0x00000000	0.0
151	0x36b2242b	5.309024e-06
152	0x00000000	0.0
153	0x387638ee	5.870399e-05
154	0x25a25ed1	2.816677e-16
155	0x34c7d7d4	3.7223674e-07
156	0x00000000	0.0
157	0x38ab3f64	8.165723e-05
158	0x389c980a	7.466979e-05
159	0x385ee193	5.3139007e-05
160	0x00000000	0.0
161	0x35633fbf	8.465685e-07
162	0x3692508c	4.360516e-06
163	0x3374e230	5.7016393e-08
164	0x3652d152	3.141428e-06
165	0x3542633e	7.241505e-07
166	0x00000000	0.0
167	0x372d8b34	1.0344014e-05
168	0x374fdb44	1.2389213e-05
169	0x1a560222	4.4255886e-23
170	0x372ed560	1.0420888e-05
171	0x3789a7a9	1.6409746e-05
172	0x376a4d63	1.3965505e-05
173	0x35b0eca3	1.3181892e-06
174	0x00000000	0.0
175	0x3682d414	3.898991e-06
176	0x364ef37d	3.083812e-06
177	0x3621f29e	2.4132091e-06
178	0x368a7a71	4.1269745e-06
179	0x3626f8e6	2.4880806e-06
180	0x3615936d	2.2288543e-06
181	0x35adf0ad	1.295955e-06
182	0x336d8f66	5.5311283e-08
183	0x35d5db9f	1.5933655e-06
184	0x34cf8734	3.8655128e-07
185	0x3353495d	4.919399e-08
186	0x361c2531	2.326746e-06
187	0x32481f7b	1.164869e-08
188	0x363e2f8f	2.833989e-06
189	0x359a9a74	1.1518846e-06
190	0x33d9cdd9	1.01422934e-07
191	0x3298448d	1.7726302e-08
192	0x37048e4f	7.900947e-06
193	0x369ef066	4.736753e-06
194	0x36989912	4.5477727e-06
195	0x00000000	0.0
196	0x344a646a	1.8849246e-07
197	0x360485c3	1.9747392e-06
198	0x3440012c	1.788182e-07
199	0x349e3908	2.947129e-07
200	0x35306501	6.571209e-07
201	0x347e2782	2.3669966e-07
202	0x358ed5f4	1.0642093e-06
203	0x35965eac	1.1203424e-06
204	0x33bece43	8.885083e-08
205	0x3568622f	8.656961e-07
206	0x35aac322	1.2722778e-06
207	0x33c81d89	9.318598e-08
208	0x34ade073	3.238707e-07
209	0x333a1436	4.332488e-08
210	0x37b6c4d2	2.1787742e-05
211	0x3794a9e8	1.7722094e-05
212	0x376f2d3b	1.4256041e-05
213	0x37d64937	2.5544881e-05
214	0x373a2ae4	1.109645e-05
215	0x36ef0a12	7.1239274e-06
216	0x36bdda13	5.658026e-06
217	0x34e712ed	4.3040873e-07
218	0x36590dd8	3.2343578e-06
219	0x3604b52c	1.9774989e-06
220	0x34a0ede5	2.9975413e-07
221	0x3792769c	1.7459788e-05
222	0x33c68476	9.244188e-08
223	0x37244d75	9.793196e-06
224	0x36eff354	7.151082e-06
225	0x353d3b2a	7.049408e-07
226	0x34aff282	3.2772738e-07
227	0x3800d9b4	3.072033e-05
228	0x37887c48	1.6270336e-05
229	0x379c3a72	1.8623865e-05
230	0x00000000	0.0
231	0x35b2b2c0	1.3314057e-06
232	0x377d8019	1.51098e-05
233	0x359c5923	1.1648848e-06
234	0x35806b9f	9.568065e-07
235	0x351a41e2	5.746534e-07
236	0x35f33244	1.811954e-06
237	0x36b97dc8	5.5280725e-06
238	0x36a2665b	4.839892e-06
239	0x30f4e2ed	1.7817833e-09
240	0x272546d6	2.293675e-15
241	0x36cbb8f6	6.0714037e-06
242	0x3697b12c	4.520776e-06
243	0x35ac7113	1.2847908e-06
244	0x2f1827e1	1.3838487e-10
245	0x3785230c	1.5871155e-05
246	0x37591c6b	1.29408245e-05
247	0x372f36c1	1.0443561e-05
248	0x37161ea3	8.94783e-06
249	0x36ce1c1a	6.14255e-06
250	0x37137db9	8.791155e-06
251	0x364d7fec	3.062184e-06
252	0x340d4b51	1.3159048e-07
253	0x36d38c24	6.3046045e-06
254	0x35c2deea	1.4519003e-06
255	0x3495518e	2.7812752e-07

exp_avg f4 [128]
0	0x3a9c7265	0.0011935948
1	0x39ca5cf2	0.00038597692
2	0xbac68911	-0.001514705
3	0xb9bf657b	-0.00036505968
4	0x3aedfc17	0.0018156794
5	0xb9f426ec	-0.00046568306
6	0xba4bea85	-0.00077787816
7	0xbae47a99	-0.0017431556
8	0xbb0e29b5	-0.002169234
9	0x3a33caf1	0.0006858549
10	0xbb30db29	-0.0026986098
11	0x3a2ac1dc	0.00065138726
12	0x39a3d7ac	0.0003125047
13	0x3a0d0541	0.0005379506
14	0xb7cff4aa	-2.4790254e-05
15	0xba779b75	-0.0009445467
16	0x3b0b3fc8	0.0021247733
17	0x3a983d65	0.0011614977
18	0xba93eba5	-0.0011285438
19	0x3a078656	0.0005169859
20	0x386392fa	5.42579e-05
21	0x3a3ccec0	0.0007202439
22	0xba856082	-0.0010175856
23	0x39ef3e66	0.00045632123
24	0x3aacd93e	0.0013187302
25	0x3a35e15d	0.0006938184
26	0xbb094b6a	-0.0020949491
27	0x3b0fe4b5	0.0021956388
28	0x38abf3bd	8.199315e-05
29	0x3b125e53	0.0022334054
30	0xb9f3be13	-0.00046490188
31	0x39b174cf	0.000338471
32	0xba44c1ca	-0.00075056835
33	0xb9b6ab09	-0.00034841176
34	0x3ab2676b	0.0013611143
35	0x3aeb4166	0.0017948567
36	0x3aad008e	0.0013199018
37	0x3aa3836f	0.0012475083
38	0xbaca6a99	-0.0015443146
39	0x3ab4157a	0.0013739311
40	0xba695b03	-0.00089018064
41	0xba6218c9	-0.0008624909
42	0x3aa6c409	0.0012723218
43	0x3a3af673	0.0007132061
44	0x3a3eb1a7	0.0007274397
45	0x3943f1a2	0.00018686664
46	0x3a0603af	0.0005112243
47	0xb96dabc3	-0.00022666068
48	0xba565b6b	-0.00081770745
49	0x3a43fd6d	0.0007476423
50	0x3abc42d3	0.0014363177
51	0x3b16eda1	0.0023029821
52	0x3a965df5	0.0011472093
53	0xba18c777	-0.00058280624
54	0x3a8f8b1d	0.0010951493
55	0xbb3b6db9	-0.0028599335
56	0x39960400	0.0002861321
57	0x39cb1402	0.00038734084
58	0xba33624c	-0.00068429555
59	0xbb283828	-0.0025668237
60	0xba16317b	-0.0005729419
61	0x3a8b0411	0.001060607
62	0x3a603fec	0.0008554447
63	0x397b6233	0.00023973807
64	0x3b135384	0.00224802
65	0xba5e915e	-0.00084902893
66	0x3b078fe6	0.0020685135
67	0xba1eae3d	-0.0006053185
68	0xb9dd8f08	-0.0004225897
69	0xb9396e44	-0.00017684052
70	0x3a7ca5f3	0.00096377655
71	0xb9f2383d	-0.00046199738
72	0xbae3076a	-0.0017320935
73	0xb979b941	-0.00023815503
74	0x37adcb84	2.0717976e-05
75	0xbae213e1	-0.0017248356
76	0x3a4ed9c7	0.0007890728
77	0xba041b48	-0.00050394656
78	0xbb4704f6	-0.0030367947
79	0x3afbd565	0.0019213377
80	0x3a7e486b	0.0009700122
81	0x3a0a3096	0.0005271522
82	0x3a3888c0	0.00070394203
83	0xbaf3f657	-0.0018612844
84	0xb995cb3f	-0.00028570925
85	0xb9eb6421	-0.00044897295
86	0xba4e8ec3	-0.00078795495
87	0xb80cebfc	-3.359838e-05
88	0xb81ea243	-3.7821253e-05
89	0xba94344d	-0.0011307091
90	0x39917e08	0.00027750456
91	0x3b0dc00d	0.0021629364
92	0x3a8cec9c	0.0010751667
93	0x3a4539e5	0.00075235806
94	0xbafb5210	-0.0019174237
95	0x3a300385	0.00067143916
96	0x3a1d8f7d	0.0006010456
97	0x3aeb74a2	0.0017963836
98	0xba06b240	-0.00051382557
99	0x3adfd011	0.0017075558
100	0x3af67c77	0.0018805404
101	0xba82b2e1	-0.0009971523
102	0x3ac08902	0.0014689269
103	0x3a130c72	0.00056094595
104	0x39fe98ce	0.00048560504
105	0xba0ddec0	-0.00054119155
106	0x00000004	6e-45
107	0xb9c26cd9	-0.0003708366
108	0x00000000	0.0
109	0xb9c8731d	-0.0003823274
110	0xba13d0df	-0.0005638729
111	0x3a423fe6	0.00074100343
112	0x39b9b76a	0.00035422604
113	0x3aece5dd	0.0018073876
114	0xb7cb8482	-2.426119e-05
115	0x00000000	0.0
116	0xba439d9e	-0.00074621465
117	0x3ac91c78	0.0015343567
118	0xba12e914	-0.00056041894
119	0xba005411	-0.00048953394
120	0x3b107a60	0.0022045597
121	0x393f8aa7	0.00018266831
122	0xba71e29f	-0.00092271896
123	0x3a98e936	0.0011666182
124	0x3a2f68c5	0.0006691332
125	0x3a9b63cf	0.0011855307
126	0x3a13dcac	0.00056404877
127	0xbae3706b	-0.0017352229

exp_avg_sq f4 [128]
0	0x3860365a	5.345638e-05
1	0x3881f990	6.197684e-05
2	0x37e0e543	2.680964e-05
3	0x37739f9c	1.4521091e-05
4	0x389f52a5	7.5971046e-05
5	0x371f00ce	9.477326e-06
6	0x384270c0	4.635821e-05
7	0x38072204	3.2218188e-05
8	0x3863c003	5.4299842e-05
9	0x36816a2f	3.856861e-06
10	0x394b2ecd	0.00019377023
11	0x37215520	9.6161675e-06
12	0x35b7c556	1.3691995e-06
13	0x36b047df	5.2535756e-06
14	0x384eefb2	4.933746e-05
15	0x38817d41	6.17453e-05
16	0x380b8613	3.326505e-05
17	0x37560f19	1.2758909e-05
18	0x380cc9db	3.3566594e-05
19	0x38347a6d	4.3029362e-05
20	0x33e306c4	1.0571742e-07
21	0x372afa7e	1.0191112e-05
22	0x37eb0724	2.8017508e-05
23	0x365136b7	3.1175275e-06
24	0x37e36222	2.7106205e-05
25	0x37bf5f5e	2.2813383e-05
26	0x3822f180	3.8848724e-05
27	0x37ed113f	2.8260632e-05
28	0x3823a09f	3.901182e-05
29	0x37f8cd94	2.9659634e-05
30	0x36a6b983	4.968782e-06
31	0x3613c52d	2.2019478e-06
32	0x36ca4e32	6.0291723e-06
33	0x37667907	1.3737247e-05
34	0x37573616	1.28275915e-05
35	0x37f575ce	2.9261133e-05
36	0x381bf2e8	3.7181104e-05
37	0x381e71de	3.7776183e-05
38	0x38b02bbb	8.4004794e-05
39	0x382ee72d	4.1700132e-05
40	0x374a7915	1.206833e-05
41	0x380a3464	3.2950556e-05
42	0x377f3a9b	1.521283e-05
43	0x36216e87	2.4055205e-06
44	0x3720b711	9.579367e-06
45	0x35541a90	7.901481e-07
46	0x36acf665	5.1546835e-06
47	0x383b5442	4.4662745e-05
48	0x37a54563	1.9701843e-05
49	0x369404de	4.4113103e-06
50	0x3787aa20	1.6172475e-05
51	0x38ac187d	8.2061604e-05
52	0x36ef8d89	7.139232e-06
53	0x36e296b3	6.7528686e-06
54	0x3852de25	5.027479e-05
55	0x384249ef	4.632206e-05
56	0x385147e2	4.989643e-05
57	0x385cf875	5.268348e-05
58	0x37d4dab0	2.5374204e-05
59	0x39095e48	0.0001310046
60	0x38059a97	3.1853644e-05
61	0x3768a2f8	1.3866222e-05
62	0x3736d87c	1.089845e-05
63	0x3799402e	1.8268907e-05
64	0x3820f8c8	3.837867e-05
65	0x383c2d5a	4.486493e-05
66	0x37ef10c4	2.8498827e-05
67	0x37dac58e	2.6079619e-05
68	0x38381104	4.3884866e-05
69	0x3795fd37	1.7880096e-05
70	0x38135c46	3.5133467e-05
71	0x3665c67f	3.42392e-06
72	0x3802ad10	3.1155592e-05
73	0x3595d686	1.11638e-06
74	0x37d989a2	2.5932506e-05
75	0x382e91a9	4.162049e-05
76	0x374d0126	1.221922e-05
77	0x36c1c04f	5.774236e-06
78	0x386b398d	5.6081964e-05
79	0x383b96f8	4.4724875e-05
80	0x37a9dd85	2.0249523e-05
81	0x374911bf	1.1984665e-05
82	0x370713cb	8.051235e-06
83	0x384af7e0	4.8391405e-05
84	0x3605739c	1.9885838e-06
85	0x37077708	8.074341e-06
86	0x382b2426	4.0803243e-05
87	0x344f41b7	1.9302284e-07
88	0x37189b36	9.096044e-06
89	0x37dca084	2.630079e-05
90	0x3776e240	1.4715421e-05
91	0x38177080	3.610598e-05
92	0x37b102be	2.1101321e-05
93	0x37a6da37	1.9890356e-05
94	0x37597e4c	1.2963614e-05
95	0x37c71bc5	2.373558e-05
96	0x36b87ab8	5.4979137e-06
97	0x38acb470	8.235208e-05
98	0x381be8dd	3.717175e-05
99	0x37afd6c7	2.096164e-05
100	0x379665b1	1.7928747e-05
101	0x376deefd	1.4181945e-05
102	0x37bd1cbe	2.254394e-05
103	0x37e06196	2.6748323e-05
104	0x360e3962	2.119305e-06
105	0x368b4d26	4.151504e-06
106	0x1664a894	1.8470887e-25
107	0x37ac7abe	2.0561154e-05
108	0x00000000	0.0
109	0x36834562	3.9121815e-06
110	0x37057a8a	7.955949e-06
111	0x36c5374d	5.8774954e-06
112	0x376aba40	1.3990852e-05
113	0x38036869	3.1330073e-05
114	0x373460b4	1.07513515e-05
115	0x00000000	0.0
116	0x381f3e0b	3.7966336e-05
117	0x37f53ec6	2.9235507e-05
118	0x37ea3826	2.792112e-05
119	0x38c9c239	9.620604e-05
120	0x386e05b5	5.6748937e-05
121	0x382dad71	4.1407944e-05
122	0x382053e9	3.822512e-05
123	0x37bdc2e7	2.2621314e-05
124	0x36f00626	7.153273e-06
125	0x37fd7764	3.0215546e-05
126	0x36e92697	6.9484336e-06
127	0x38be35e3	9.069943e-05

exp_avg f4 [3, 128]
0	0xb8bd84ab	-9.0369336e-05
1	0xb9633643	-0.00021668621
2	0xb7a66f98	-1.9840707e-05
3	0xb8448240	-4.6851346e-05
4	0xb613794c	-2.197531e-06
5	0xb91ac4d1	-0.00014759904
6	0xb86fb206	-5.7147838e-05
7	0xb8ce9303	-9.8502285e-05
8	0xb8bb6127	-8.934951e-05
9	0xb8089a60	-3.25687e-05
10	0xb8d36164	-0.000100794045
11	0xb963c5c5	-0.00021722082
12	0xb9446575	-0.00018729812
13	0xb99595ed	-0.00028531198
14	0xb8262942	-3.961591e-05
15	0xb8589f8b	-5.1647e-05
16	0x384b5910	4.8481917e-05
17	0xb824483b	-3.9167917e-05
18	0xb92d4da6	-0.00016527492
19	0xb8e2d80a	-0.0001081676
20	0xb894901f	-7.0840346e-05
21	0xb883325f	-6.255949e-05
22	0xb6d90eb2	-6.4688147e-06
23	0xb94c57a0	-0.00019487599
24	0xb9a39757	-0.0003120254
25	0xb8082f5a	-3.2469026e-05
26	0xb82ec151	-4.1664873e-05
27	0x3663eb4b	3.3962594e-06
28	0x389d7169	7.507468e-05
29	0xb86ec64e	-5.6928307e-05
30	0xb9473d8c	-0.00019001047
31	0xb90584f6	-0.000127334
32	0xb8dd15a9	-0.00010542136
33	0xb83d6e28	-4.5163702e-05
34	0xb962cd93	-0.00021629622
35	0xb7a84da6	-2.0063319e-05
36	0x3767f5a7	1.3825868e-05
37	0xb87c6e00	-6.0183927e-05
38	0xb7f480d9	-2.9147066e-05
39	0x381b7284	3.706153e-05
40	0xb91c9810	-0.00014933967
41	0xb7fbf321	-3.0034747e-05
42	0xb898ad6b	-7.2802264e-05
43	0xb8a2c548	-7.7615085e-05
44	0xb8ad43d1	-8.2619146e-05
45	0xb95cd856	-0.00021061426
46	0xb91f8cbd	-0.0001521585
47	0xb8c50796	-9.395105e-05
48	0xb95a6458	-0.00020827481
49	0xb8f1a911	-0.000115232666
50	0xb91efa2d	-0.00015161252
51	0xb5705ac5	-8.9539054e-07
52	0x38117b05	3.4685265e-05
53	0xb886ce95	-6.428097e-05
54	0xb8223dfa	-3.868153e-05
55	0xb87d965e	-6.045994e-05
56	0xb7e0efe0	-2.6814581e-05
57	0xb6c085aa	-5.7376064e-06
58	0xb85ae468	-5.218797e-05
59	0xb91b8113	-0.00014830036
60	0xb92d8de4	-0.00016551424
61	0xb986ff7c	-0.00025748822
62	0xb8daec88	-0.000104391074
63	0x378e2613	1.6945449e-05
64	0xb90eb937	-0.00013611173
65	0xb81608d6	-3.5771016e-05
66	0xb57d1289	-9.4276817e-07
67	0xb9439481	-0.00018651971
68	0xb8f1b93a	-0.00011526277
69	0xb6f0a124	-7.1713166e-06
70	0xb66ca217	-3.526109e-06
71	0xb92ce2d3	-0.00016487697
72	0x373e531e	1.1344235e-05
73	0xb9367d90	-0.00017403648
74	0xb4f12001	-4.4913034e-07
75	0xb8976aa5	-7.220105e-05
76	0xb971d8c6	-0.00023064305
77	0xb88e253c	-6.778023e-05
78	0x3545a3a0	7.3626325e-07
79	0xb84098b9	-4.59186e-05
80	0xb791fecb	-1.7403994e-05
81	0xb821b567	-3.8554335e-05
82	0xb912124d	-0.00013930463
83	0xb8120054	-3.4809418e-05
84	0xb976ff71	-0.00023555548
85	0x3706e43e	8.040164e-06
86	0x380cd4f4	3.357693e-05
87	0xb960cf49	-0.00021439524
88	0x379558f9	1.7803615e-05
89	0xb948b428	-0.000191406
90	0xb911086c	-0.00013831415
91	0xb8a3a116	-7.80245e-05
92	0xb884b360	-6.327662e-05
93	0x37f0e2cb	2.8715838e-05
94	0xb9083112	-0.00012988251
95	0xb853338b	-5.0354323e-05
96	0xb94d53bb	-0.00019581516
97	0xb75f632b	-1.3314925e-05
98	0xb807a0c8	-3.2336247e-05
99	0xb849c5e5	-4.8106438e-05
100	0x382eea4b	4.1703035e-05
101	0xb8ba4c14	-8.883342e-05
102	0x37543aac	1.2649845e-05
103	0x3739e9db	1.1081308e-05
104	0xb89565ae	-7.123813e-05
105	0xb911171b	-0.00013836885
106	0x00000004	6e-45
107	0xb8867541	-6.411458e-05
108	0x00000000	0.0
109	0xb7cf86a8	-2.4739027e-05
110	0xb97ce0f3	-0.00024116393
111	0xb97e1fef	-0.00024235224
112	0xb66a1410	-3.4880395e-06
113	0xb93738fd	-0.0001747347
114	0xb902b0b8	-0.00012463599
115	0x00000000	0.0
116	0xb86f8e35	-5.711448e-05
117	0xb93fabc1	-0.00018279163
118	0xb8575b2d	-5.134491e-05
119	0xb81a3bb9	-3.6772082e-05
120	0xb795637e	-1.7808514e-05
121	0xb8726dda	-5.7799603e-05
122	0xb8b428d2	-8.590672e-05
123	0xb92f5413	-0.0001672062
124	0xb9610068	-0.00021457823
125	0xb7329979	-1.064536e-05
126	0x384d352f	4.892534e-05
127	0xb8f95fc9	-0.000118910866
128	0x38f04fe3	0.00011458972
129	0x39268084	0.0001587887
130	0xb72faea1	-1.0471472e-05
131	0x38249ccd	3.924668e-05
132	0xb8a72192	-7.9694335e-05
133	0x38966822	7.1719536e-05
134	0x38cbd639	9.7196964e-05
135	0xb603a036	-1.9613776e-06
136	0x37d5d069	2.5488627e-05
137	0xb93bb82c	-0.00017902319
138	0xb8df10a9	-0.00010636572
139	0x370b2aa7	8.294976e-06
140	0xb8857cb0	-6.365159e-05
141	0x390d0155	0.00013447304
142	0x3687c7eb	4.046587e-06
143	0x3836c585	4.3576136e-05
144	0xb8b6d5a6	-8.7182314e-05
145	0x3711d954	8.693274e-06
146	0x385ecdaa	5.3120464e-05
147	0x38717c3d	5.7574583e-05
148	0x38ac49f5	8.215375e-05
149	0xb91727b6	-0.00014415276
150	0x37d88188	2.5809524e-05
151	0xb92fda8c	-0.00016770716
152	0x397857d3	0.0002368384
153	0x35b05899	1.3138807e-06
154	0xb96b6074	-0.00022447278
155	0x31b5a4bc	5.2865214e-09
156	0x37fedcaf	3.0381923e-05
157	0xb874814f	-5.829456e-05
158	0x37e1057c	2.6824644e-05
159	0xb9259a5b	-0.00015793128
160	0xb9357c4a	-0.00017307806
161	0x38a4e308	7.862417e-05
162	0xb986ecd4	-0.00025734922
163	0xb8aea282	-8.327236e-05
164	0xb52ca709	-6.431806e-07
165	0xb83d11ae	-4.5077577e-05
166	0xb7162537	-8.9493615e-06
167	0xb89302eb	-7.01005e-05
168	0x3894d840	7.09747e-05
169	0xb80a05c1	-3.2907123e-05
170	0xb8da296f	-0.00010402768
171	0xb967986c	-0.00022086658
172	0x372bfd24	1.0251333e-05
173	0xb92fe670	-0.00016775145
174	0xb82b88e5	-4.089707e-05
175	0x38ac6638	8.220639e-05
176	0x39050f98	0.00012689678
177	0xb94200d6	-0.00018501593
178	0xb8db1e60	-0.000104483915
179	0x367c6769	3.7611119e-06
180	0x3725112b	9.838764e-06
181	0x38e3154a	0.00010828169
182	0x37a66fb8	1.9840765e-05
183	0xb730f227	-1.0546798e-05
184	0x38838ee4	6.273182e-05
185	0x389eb6c1	7.568068e-05
186	0x37f288a6	2.891228e-05
187	0x38b15467	8.455739e-05
188	0x39086c88	0.00013010402
189	0xb93bddc3	-0.00017916322
190	0xb8d5c043	-0.00010192443
191	0x371030ec	8.594459e-06
192	0xb9ae6d36	-0.00033269235
193	0x38dcfea9	0.000105378516
194	0x37da0510	2.5989983e-05
195	0x391d3ff1	0.00014996507
196	0xb93c36b1	-0.00017949451
197	0x37ebb854	2.8100018e-05
198	0xb967db8b	-0.00022111663
199	0xb799a8fe	-1.8317714e-05
200	0x354866c7	7.4655367e-07
201	0xb795ba0a	-1.7848815e-05
202	0x36caa6bf	6.039481e-06
203	0x381212cb	3.4826615e-05
204	0x36bea0da	5.681167e-06
205	0xb96baf5f	-0.00022476677
206	0x38087952	3.2537915e-05
207	0x380e4729	3.392171e-05
208	0x37e10ca9	2.6827985e-05
209	0xb8d98917	-0.00010372901
210	0x38b17efb	8.46367e-05
211	0x37b009a7	2.098533e-05
212	0x39195281	0.00014621952
213	0x37966690	1.7929153e-05
214	0x379889de	1.8184011e-05
215	0xb9728ab7	-0.00023130594
216	0xb5a4360d	-1.2234683e-06
217	0x3813548b	3.5126268e-05
218	0xb910d35c	-0.00013811648
219	0xb97e206d	-0.00024235407
220	0xb92d5cf8	-0.00016533199
221	0xb80e823c	-3.397673e-05
222	0x37f3c94c	2.9061594e-05
223	0x38e81133	0.00011065826
224	0xb7f9266a	-2.9701001e-05
225	0xb9325424	-0.00017006748
226	0x38613439	5.3692816e-05
227	0xb911bf09	-0.00013899444
228	0xb897fe01	-7.247553e-05
229	0x38c12c46	9.211204e-05
230	0xb9801e36	-0.0002443657
231	0x37f6b4c2	2.9409657e-05
232	0xb88594fa	-6.369683e-05
233	0x38d02467	9.924993e-05
234	0x00000004	6e-45
235	0x38c0031b	9.155852e-05
236	0x00000000	0.0
237	0x3836a1f0	4.3542997e-05
238	0x38b1d74d	8.4801206e-05
239	0xb9112060	-0.00013840338
240	0x37b3cd40	2.143404e-05
241	0xb93b7dce	-0.00017880576
242	0x390561fc	0.0001272037
243	0x00000000	0.0
244	0x379c0b12	1.8601804e-05
245	0x392e749e	0.00016637376
246	0x3933e3bb	0.00017155606
247	0xb5ee89dc	-1.7772504e-06
248	0xb759fcbc	-1.2993052e-05
249	0x3886f064	6.434394e-05
250	0xb8c7976e	-9.5172654e-05
251	0x38ee35ca	0.00011358743
252	0x3902654e	0.00012435505
253	0xb847e1c0	-4.7655543e-05
254	0x37dfd337	2.6682026e-05
255	0xb6b36f09	-5.347542e-06
